testingNN/models/lenet1.pth (torch, 55717 bytes, 6 tensors)

conv.0.weight f4 [32, 1, 5, 5]
0.113342494 0.28736845 0.48210526 0.5151977 0.52357465 -0.31622988 -0.04832513 0.1864978
0.27786982 0.4969483 -0.6441662 -0.5643148 -0.16000108 0.21750844 0.5202186 -0.66867137
-0.5017437 -0.3570094 0.07375295 0.5204343 -0.4688779 -0.46581843 -0.30274588 0.1888843
0.44889218 -0.3731332 -0.2165102 -0.14252092 0.22774884 -0.00882435 -0.2990161 -0.0077668335
0.05571633 0.063581556 0.06862645 -0.037394047 0.11164775 0.3235108 0.0886688 -0.014998276
-0.079173125 0.15596518 0.16302171 0.059655905 0.07852621 0.084703356 0.12951113 -0.0060248906
0.29525435 0.22936964 -0.536747 -0.21659364 0.11177091 0.11911413 0.3926483 -0.25795883
0.18638384 0.30896294 0.3715342 0.4159361 0.16254471 0.32895994 0.09807596 0.24021998
0.18451369 0.29944056 0.018185511 0.019325664 0.10349261 0.028454809 0.16314097 0.21819037
-0.18138796 0.1776503 -0.10883002 -0.026586788 0.0051540677 -0.04311577 0.16387469 0.20737419
0.19803685 0.22573379 -0.005660286 0.13513455 0.13377565 0.20270461 0.14845866 0.27706283
0.32973665 0.319464 0.019261196 0.28129154 0.3140855 0.15832521 0.2893548 0.24695192
0.25294027 -0.061014052 -0.2056462 -0.14576301 0.100240506 0.11684609 0.2537039 0.005279763
0.29118526 0.20469894 0.32539326 0.14161363 0.24013314 0.04354021 -0.08132253 -0.09273193
0.31911924 0.26111647 0.10322535 -0.14010826 -0.024348369 0.14538999 0.18351045 -0.01699924
-0.107514635 0.12219888 -0.16767254 0.04336394 -0.068191335 -0.30846786 -0.10948296 0.050459962
0.3018073 0.15645581 -0.28874156 -0.079984814 0.3336709 0.3183168 0.13478428 0.162806
0.19001234 0.29301688 0.053806122 0.20827574 0.3556933 0.41854134 0.12713534 0.090115145
-0.16496697 0.30190367 0.26026598 0.028798087 -0.09310145 -0.107632026 -0.25591135 -0.421819
-0.3050516 0.10876545 0.062029544 -0.04758037 0.16399005 0.30557147 0.11541929 0.30258015
0.06215695 0.40299094 0.37776288 0.2385974 0.14685182 0.30963582 0.17731646 0.003612729
0.041867457 0.0966257 -0.118172795 0.1287246 -0.12322142 -0.040254053 0.087942265 0.3125731
0.26800242 0.16162628 0.24782893 0.3831362 0.29700342 0.20190197 0.3511122 0.15589964
0.12993151 0.028469399 0.35121483 -0.019265959 0.13912813 -0.3244379 0.15124717 0.05475934
-0.06391024 -0.36692792 -0.50293034 -0.07942371 0.01703056 -0.388642 -0.3831702 -0.43828863
-0.18154499 -0.48612058 -0.16200343 -0.020783901 0.27543262 -0.4158125 -0.39174467 -0.0036726135
0.10027402 0.26294905 0.4222263 0.42818174 0.19947687 0.31048033 0.14628197 0.43154973
0.16594444 -0.0473815 0.045735795 0.28834707 -0.12161339 0.10291935 -0.16413492 0.32671654
0.3781142 -0.08765816 0.04470112 -0.119466595 -0.34432796 -0.5630022 0.34885705 0.35042712
0.38289043 0.07634924 -0.2293644 0.015909396 0.3692044 0.2717472 0.20080078 0.20737894
-0.3461908 -0.1738779 0.20358498 0.36606514 0.3099402 -0.21742535 -0.18001427 -0.29310077
-0.029543344 0.32684144 -0.4997432 -0.29360688 0.07189002 0.18139462 0.31651673 -0.38848343
00000000: 1c20 e83d f521 933e 80d6 f63e ffe3 033f
00000010: fd08 063f e2e8 a1be 92f0 45bd 47f9 3e3e
00000020: f444 8e3e 0270 fe3e 13e8 24bf ef76 10bf
00000030: 53d7 23be 88ba 5e3e 0c2d 053f 0c2e 2bbf
00000040: 4672 00bf f0c9 b6be c90b 973d 2f3b 053f
00000050: c410 f0be c17f eebe 8201 9bbe e36a 413e
00000060: 32d5 e53e 510b bfbe dab4 5dbe 01f1 11be
00000070: fe36 693e 0294 10bc a318 99be ec80 febb
00000080: ce36 643d 0c37 823d 068c 8c3d 802a 19bd
00000090: 93a7 e43d 35a3 a53e fd97 b53d 54bb 75bc
000000a0: 8525 a2bd 56b5 1f3e 2aef 263e c059 743d
000000b0: 59d2 a03d f478 ad3d 919e 043e 726c c5bb
000000c0: 942b 973e e0df 6a3e 4068 09bf b9ca 5dbe
000000d0: 26e8 e43d 1cf2 f33d 3309 c93e 2e13 84be
000000e0: 68db 3e3e 6430 9e3e bb39 be3e 94f5 d43e
000000f0: 1f72 263e 706d a83e 0ddc c83d 3afc 753e
00000100: 28f1 3c3e 4650 993e c8f9 943c db50 9e3c
00000110: eff3 d33d 0f1a e93c 6d0e 273e 4c6d 5f3e
00000120: c4bd 39be f6e9 353e 46e2 debd 89cc d9bc
00000130: 74e3 a83b 299a 30bd c4ce 273e e659 543e
00000140: 2cca 4a3e c226 673e ec79 b9bb b660 0a3e
00000150: 7cfc 083e cc91 4f3e 8c05 183e 2edb 8d3e
00000160: 3ed3 a83e c990 a33e a8c9 9d3c 7205 903e
00000170: d1cf a03e 0120 223e 5026 943e f7e0 7c3e
00000180: 6381 813e dfe9 79bd eb94 52be e642 15be
00000190: e54a cd3d 014d ef3d 7ae5 813e dd01 ad3b
000001a0: 3c16 953e 999c 513e f299 a63e 2a03 113e
000001b0: 76e5 753e 3857 323d 6d8c a6bd 3dea bdbd
000001c0: 9963 a33e 0fb1 853e d067 d33d 8a78 0fbe
000001d0: 3b76 c7bc 1de1 143e 2aea 3b3e fd41 8bbc
000001e0: a230 dcbd 6843 fa3d 5ab2 2bbe 639e 313d
000001f0: e6a7 8bbd 80ef 9dbe 9a38 e0bd 1baf 4e3d
00000200: 7d86 9a3e f435 203e efd5 93be 14cf a3bd
00000210: ead6 aa3e 6bfa a23e e404 0a3e 9eb6 263e
00000220: 9892 423e 4f06 963e cf63 5c3d 3c46 553e
00000230: 6f1d b63e 0d4b d63e c42f 023e 4a8e b83d
00000240: 1aed 28be 1e93 9a3e 9541 853e f7e9 eb3c
00000250: f9ab bebd 2e6e dcbd d006 83be a9f8 d7be
00000260: b92f 9cbe 6cc0 de3d b112 7e3d a2e3 42bd
00000270: 02ed 273e dd73 9c3e f360 ec3d c9eb 9a3e
00000280: 4998 7e3d d454 ce3e 236a c13e e052 743e
00000290: 5360 163e 9688 9e3e 7292 353e 89c3 6c3b
000002a0: 367d 2b3d b2e3 c53d 9404 f2bd 62d0 033e
000002b0: 835b fcbd 6fe1 24bd 131b b43d 9509 a03e
000002c0: 9d37 893e 5c81 253e dec6 7d3e 6e2a c43e
000002d0: d510 983e 64bf 4e3e fac4 b33e 28a4 1f3e
000002e0: c40c 053e a838 e93c 6ed2 b33e a5d3 9dbc
000002f0: 9b77 0e3e b91c a6be 8ae0 1a3e 544b 603d
00000300: 5fe3 82bd fadd bbbe 0bc0 00bf e6a8 a2bd
00000310: ac83 8b3c 16fc c6be e22e c4be 5e67 e0be
00000320: eee6 39be cce4 f8be 3ae4 25be 0043 aabc
00000330: 8105 8d3e 60e5 d4be c292 c8be 3bb0 70bb
00000340: 775c cd3d 42a1 863e 0c2e d83e a33a db3e
00000350: aa43 4c3e 47f7 9e3e f1ca 153e 16f4 dc3e
00000360: 57ed 293e 1b13 42bd 7555 3b3d 3aa2 933e
00000370: 7110 f9bd 61c7 d23d fc12 28be 6447 a73e
00000380: 2f98 c13e 1f86 b3bd 8618 373d e7aa f4bd
00000390: c14b b0be ea20 10bf 649d b23e 2f6b b33e
000003a0: 370a c43e fe5c 9c3d 80de 6abe 6c54 823c
000003b0: 5c08 bd3e 7322 8b3e b89e 4d3e 255b 543e
000003c0: ec3f b1be 0c0d 32be 9578 503e e46c bb3e
000003d0: 7bb0 9e3e c0a4 5ebe a955 38be 4e11 96be
000003e0: e204 f2bc c357 a73e 57de ffbe a453 96be
000003f0: 133b 933d 83bf 393e 7b0e a23e 4de7 c6be

conv.0.bias f4 [32]
0.1601436 0.19154471 -0.0009550358 0.0014182566 0.08703901 -0.0029083786 0.00026937274 0.2108478
-0.00097478676 0.009930481 -0.114999555 0.00038514897 -0.17475313 -0.00032427025 0.0034200852 -0.0009924286
-0.006070275 0.19772291 0.2303198 -0.072848074 -0.0034315104 -0.0023259465 -7.424035e-05 -0.069345556
0.25437766 0.09570664 0.14610784 -0.047192786 -0.00094321277 0.09968123 -0.0010288205 -0.002404136
00000000: affc 233e 4c24 443e 5e5b 7aba cbe4 b93a
00000010: 8241 b23d 7f9a 3ebb 993a 8d39 7ce8 573e
00000020: d588 7fba 75b3 223c e384 ebbd d2ed c939
00000030: 7cf2 32be d102 aab9 8223 603b 6114 82ba
00000040: 28e9 c6bb e077 4a3e f4d8 6b3e 5f31 95bd
00000050: 31e3 60bb e86e 18bb 7cb1 9bb8 0b05 8ebd
00000060: ca3d 823e d801 c43d 4b9d 153e 394d 41bd
00000070: f041 77ba ac25 cc3d 7dd9 86ba b58e 1dbb

conv.3.weight f4 [16, 32, 3, 3]
-0.0696194 -0.33053464 -0.12759788 0.15446529 0.16133617 0.2346227 0.11535266 0.15798976
0.33038747 0.07021504 0.068452686 0.09316599 -0.15549415 -0.0788903 0.024050074 -0.10351191
-0.10323597 -0.09370618 -0.07409975 -0.13429697 -0.16270721 0.05283623 0.11338376 -0.020337725
-0.046660174 -0.045545578 0.008327516 0.09990989 -0.043241285 0.00013204032 0.07587585 0.039834753
0.08697186 -0.13486305 -0.031209612 -0.0006113706 -0.033110663 -0.10011173 -0.18116285 0.15634535
0.21885803 0.106441356 0.01796586 0.015562229 0.12990776 -0.041116927 0.03980926 -0.04207634
-0.062873535 -0.15094128 -0.048458416 -0.21058139 -0.22339384 -0.035479706 0.091963366 0.06623512
0.1348147 0.08096657 0.19329058 0.03869589 -0.195256 -0.062378246 0.012228538 -0.26413974
-0.3343857 -0.1757723 0.16291606 0.11278089 -0.04777011 0.086016215 0.060426608 -0.015454843
0.026856434 0.09648606 0.17385611 -0.060644895 -0.04039211 0.08511052 -0.25073478 -0.031999722
0.0044280575 0.2147075 0.23899624 0.14640461 0.24779606 0.2980389 0.27826118 -0.17531724
-0.04008906 0.012602086 -0.11811204 -0.35163808 -0.22852045 -0.07177474 -0.17000951 -0.1546468
-0.12843834 -0.062092237 -0.0024527838 0.07623873 -0.0933558 -0.017546128 -0.0006438638 0.017334245
-0.046674218 -0.07110329 0.015350743 -0.04402238 -0.18834789 -0.16284075 -0.23005347 -0.15431726
-0.109473646 -0.16894272 -0.15738933 0.03476973 0.102426425 0.15918773 0.13977525 0.10710794
0.09359865 0.14504454 0.18566743 -0.22524871 -0.065435335 0.04482581 -0.3118056 -0.35833764
-0.31760654 0.17792022 0.16534746 0.084763974 0.10221928 0.12221534 0.023543859 0.0991187
-0.0023547236 -0.033597715 0.08919764 0.13902247 0.16354273 -0.20085476 -0.05203214 0.053962167
0.21721028 0.21193182 0.05156534 -0.037963927 0.003508908 0.054104105 -0.3237384 -0.17746834
-0.118411876 -0.103604235 -0.2969875 -0.2220746 0.28394857 0.21620035 0.0033221142 0.21586844
0.26386437 0.05452537 -0.18676734 -0.25268704 -0.15440592 0.21467912 0.24698734 -0.11227838
0.073091574 0.058925197 -0.15897173 0.23180369 0.24195983 0.10128405 -0.119874835 -0.024678946
0.006853666 -0.19699378 -0.14308637 -0.03940964 0.11878065 -0.0046829027 -0.11178185 0.15282251
0.21937543 0.2155212 -0.10406895 0.022938855 0.10625595 0.036841974 -0.08137711 -0.17568427
0.13195732 0.13246171 0.12411058 -0.12591116 -0.058291133 0.030213967 -0.18507248 -0.2520796
-0.06666952 0.15830109 0.09752656 0.119768 -0.18526262 -0.038000576 0.06737547 -0.09197376
-0.17448643 -0.16122544 -0.037839506 -0.13081591 -0.03034548 -0.08526113 0.033915065 0.053679246
0.34332055 0.41522634 0.34455884 -0.12676522 -0.028414283 0.01943226 -0.098329045 -0.20629725
-0.23565936 -0.16513948 -0.32113865 -0.3275179 0.23431973 0.20945969 -0.046409342 0.071855605
0.08589899 -0.09320686 0.08132532 0.022634761 0.0066602374 -0.119928025 -0.1527974 0.020418497
-0.14308228 -0.05799747 -0.019640973 0.21823753 0.3559743 0.24873939 -0.14479111 -0.074844524
-0.05989345 -0.12575535 -0.25491136 -0.16000263 0.26317948 0.17872195 0.1276986 -0.011980372
00000000: 9e94 8ebd d63b a9be 05a9 02be 262c 1e3e
00000010: 4f35 253e ef40 703e 043e ec3d 11c8 213e
00000020: 8c28 a93e e7cc 8f3d ec30 8c3d d0cd be3d
00000030: dc39 1fbe 3d91 a1bd a904 c53c 0dfe d3bd
00000040: 616d d3bd 07e9 bfbd 9cc1 97bd 2585 09be
00000050: b89c 26be cd6a 583d bf35 e83d 4d9b a6bc
00000060: bd1e 3fbd 008e 3abd 2270 083c 8e9d cc3d
00000070: c61d 31bd 4e74 0a39 cc64 9b3d c429 233d
00000080: 4d1e b23d 8a19 0abe 4dab ffbc 6344 20ba
00000090: 0c9f 07bd 6107 cdbd c182 39be ff18 203e
000000a0: 521c 603e edfd d93d 242d 933c b8f8 7e3c
000000b0: 8a06 053e 396a 28bd 090f 233d 3e58 2cbd
000000c0: d7c3 80bd 5a90 1abe 557c 46bd a6a2 57be
000000d0: 5bc1 64be 2b53 11bd 4a57 bc3d 47a6 873d
000000e0: dd0c 0a3e cdd1 a53d f7ed 453e 957f 1e3d
000000f0: 30f1 47be 5580 7fbd 355a 483c 533d 87be
00000100: 9a34 abbe a7fd 33be 78d3 263e abf9 e63d
00000110: 97aa 43bd 4529 b03d e481 773d 4f36 7dbc
00000120: 0602 dc3c 7c9a c53d 5607 323e c866 78bd
00000130: 3272 25bd 6d4e ae3d 4f60 80be 2412 03bd
00000140: 3d19 913b 48dc 5b3e 6ebb 743e 17eb 153e
00000150: 40be 7d3e 8e98 983e 4078 8e3e 5d86 33be
00000160: 6d34 24bd fb78 4e3c bae4 f1bd e809 b4be
00000170: 4401 6abe a3fe 92bd f916 2ebe bb5b 1ebe
00000180: 5785 03be 6e54 7ebd e2be 20bb 0d23 9c3d
00000190: 5331 bfbd e6bc 8fbc f8c8 28ba 8c00 8e3c
000001a0: 772d 3fbd 9a9e 91bd af81 7b3c d050 34bd
000001b0: 45de 40be babf 26be 2393 6bbe 5805 1ebe
000001c0: b833 e0bd 52ff 2cbe ab2a 21be b46a 0e3d
000001d0: f2c4 d13d 1c02 233e 3e21 0f3e 685b db3d
000001e0: a6b0 bf3d 8e86 143e 9a1f 3e3e 99a7 66be
000001f0: f602 86bd 459b 373d fca4 9fbe 0878 b7be
00000200: 539d a2be b830 363e d850 293e bc98 ad3d
00000210: 5858 d13d 094c fa3d 0ddf c03c bffe ca3d
00000220: b551 1abb c29d 09bd 41ad b63d e85b 0e3e
00000230: bf77 273e dfac 4dbe a71f 55bd 6f07 5d3d
00000240: 5f6c 5e3e a804 593e 2e36 533d 1080 1bbd
00000250: b5f5 653b 449c 5d3d 0ac1 a5be 43ba 35be
00000260: ed81 f2bd 752e d4bd bf0e 98be 8667 63be
00000270: b561 913e a063 5d3e d4b7 593b 9e0c 5d3e
00000280: 3b19 873e ff55 5f3d f03f 3fbe 3260 81be
00000290: 961c 1ebe d8d4 5b3e 40ea 7c3e 35f2 e5bd
000002a0: 09b1 953d 8c5b 713d 7cc9 22be f25d 6d3e
000002b0: 51c4 773e 036e cf3d f080 f5bd 802b cabc
000002c0: b894 e03b bdb8 49be 3c85 12be 016c 21bd
000002d0: 4543 f33d 0973 99bb e2ed e4bd 817d 1c3e
000002e0: f4a3 603e 97b1 5c3e 1a22 d5bd 44ea bb3c
000002f0: b89c d93d 9ce7 163d 0ba9 a6bd 94e6 33be
00000300: d21f 073e 0ba4 073e b02d fe3d dbee 00be
00000310: afc2 6ebd 4883 f73c a483 3dbe 9410 81be
00000320: 088a 88bd ae19 223e 01bc c73d ed48 f53d
00000330: 7cb5 3dbe 7ea6 1bbd 27fc 893d bd5c bcbd
00000340: 92ac 32be 4818 25be 99fd 1abd 9bf4 05be
00000350: 1697 f8bc 639d aebd 86ea 0a3d c5de 5b3d
00000360: b6c7 af3e 8c98 d43e 046a b03e bece 01be
00000370: 12c5 e8bc 6730 9f3c bd60 c9bd 963f 53be
00000380: b050 71be 531a 29be 496c a4be 6db0 a7be
00000390: 83f1 6f3e 9a7c 563e b917 3ebd 0829 933d
000003a0: cfeb af3d 3de3 bebd e48d a63d 896c b93c
000003b0: 1f3e da3b d39c f5bd ec76 1cbe b144 a73c
000003c0: 2984 12be c18e 6dbd 1be6 a0bc a979 5f3e
000003d0: 4342 b63e 8ab5 7e3e 1f44 14be 1648 99bd
000003e0: d652 75bd 03c6 00be be83 82be bbd7 23be
000003f0: 76bf 863e e302 373e 6cc3 023e 5249 44bc

conv.3.bias f4 [16]
-0.026217336 -0.07423645 -0.0005332603 0.10341421 0.026161805 -0.055707965 -0.10420439 0.04823412
-0.065303616 0.0022353756 -0.04111653 -0.034803215 -0.065665625 -0.05101191 0.005119685 -0.042389046
00000000: bdc5 d6bc 4809 98bd 7eca 0bba d4ca d33d
00000010: 4851 d63c 092e 64bd 1c69 d5bd 2491 453d
00000020: e7bd 85bd 617f 123b ce69 28bd d18d 0ebd
00000030: b37b 86bd ddf1 50bd 08c3 a73b 23a0 2dbd

fc.0.weight f4 [10, 784]
-0.066953406 -0.098687716 -0.075700164 -0.04478361 -0.020180294 -0.0692215 -0.008814662 -0.003724854
-0.01651607 -0.050500136 0.05440537 0.0072520087 -0.0012320175 -0.07660258 -0.0040469496 -0.043803666
0.016564524 0.022893399 0.034963824 -0.010864317 -0.034952614 0.070826516 0.031382643 -0.067129344
-0.12608933 -0.018330812 -0.047661535 -0.045503058 0.0033512353 0.050990194 -0.030538391 0.02754979
-0.08229928 -0.08772229 -0.07791744 0.015356278 -0.011225931 0.00725018 0.029299337 -0.07338618
-0.043345015 -0.00026364642 -0.014228331 -0.08742084 -0.07862847 -0.01804802 -0.050139412 -0.17191172
-0.104152136 0.0027385338 -0.03120309 -0.0070894067 -0.0028878646 -0.038312867 -0.046361644 -0.0366149
-0.055192582 -0.05573998 -0.007618781 -0.004997576 0.0017545973 0.031687737 -0.0058321375 0.01840308
0.04165878 -0.019017387 -0.021705218 0.05114008 0.028874788 -0.012016277 -0.012675461 0.07326763
0.027453553 0.021861529 -0.04924836 -0.01615872 0.04703068 0.0756096 0.023840535 0.043641854
-0.041053582 0.036144283 -0.028840264 0.015309425 -0.0034487625 0.0039244383 0.013317579 0.002231175
-0.0014442065 -0.027601335 -0.04985719 -0.017735278 -0.04881373 -0.11389643 -0.15703385 -0.20535654
-0.08311778 -0.046937626 -0.07766607 -0.07619307 -0.04615804 -0.038289584 -0.04467805 -0.064568095
0.011938611 -0.07306059 0.030906416 -0.058745857 0.0797501 0.040912308 -0.057840403 -0.13650225
-0.040268894 -0.0027003663 0.043563075 0.004999619 -0.022336343 -0.027081056 -0.105434574 0.0314489
0.03575127 0.01898496 -0.11053451 -0.032839794 0.062114153 -0.040431924 0.066923 -0.015678182
0.039004438 -0.11212493 0.03518184 0.05476084 -0.021777226 0.060120005 -0.05307314 0.037361518
-0.06254582 0.012825855 0.011350306 0.07628882 0.08447015 -0.11053178 -0.14921592 -0.35557887
-0.2927859 -0.046873707 -0.014390668 0.05540159 0.020851234 0.05805225 0.09917507 0.057260722
0.049445715 0.039966967 0.011750715 -0.049781077 -0.093440175 0.072182335 -0.24448511 -0.17025483
-0.04246096 -0.030053139 -0.11401885 -0.087328225 -0.013664118 -0.16558047 -0.18435141 -0.068375714
-0.0510303 -0.27085683 -0.11481222 -0.09600381 -0.25061557 -0.07719093 -0.10250298 -0.030519532
-0.20306487 -0.14681277 0.013299193 0.09138678 0.016078854 -0.012784505 -0.008037039 -0.10307643
-0.0129378345 -0.008065465 0.075320125 0.037365016 0.05137479 0.054860603 -0.025239054 0.007587567
0.023431562 -0.015072866 0.013794495 0.032224204 -0.049623314 -0.07829435 -0.096901715 -0.04559771
-0.076156616 -0.019355949 -0.012884369 -0.07324751 0.009023583 -0.0073215403 0.010591027 -0.003756845
-0.0053366604 -0.01222258 -0.0486893 0.0150129115 0.008919833 0.04231397 0.03249345 0.009358843
0.029922547 0.0442773 0.020695124 0.076404616 -0.06677987 -0.026489254 0.052037045 0.023053655
0.034729127 0.013501999 0.02639696 -0.075319044 -0.029773908 0.051198717 0.04116832 0.014924885
0.044426195 -0.0038523588 -0.029331906 -0.049144994 0.014608987 -0.016493507 -0.010157727 -0.011833839
-0.048251454 -0.09594962 -0.073323585 -0.03775361 -0.036177434 -0.089699365 -0.08581134 -0.13305426
-0.0471725 -0.066270255 -0.031668127 -0.013217605 -0.015892673 -0.016648548 -0.06519895 0.044902574
00000000: de1e 89bd c91c cabd b008 9bbd 056f 37bd
00000010: 2551 a5bc 00c4 8dbd 5f6b 10bc ae1c 74bb
00000020: b64c 87bc 3bd9 4ebd 2ad8 5e3d 42a2 ed3b
00000030: a67b a1ba d0e1 9cbd 469c 84bb 796b 33bd
00000040: 53b2 873c f08a bb3c 3a36 0f3d 4000 32bc
00000050: 792a 0fbd 7e0d 913d 168b 003d 1c7b 89bd
00000060: 901d 01be 802a 96bc be38 43bd 6a61 3abd
00000070: 66a0 5b3b 18db 503d a62b fabc 19b0 e13c
00000080: 868c a8bd bea7 b3bd 2e93 9fbd e698 7b3c
00000090: f8ec 37bc eb92 ed3b 2a05 f03c 7e4b 96bd
000000a0: 8b8a 31bd 063a 8ab9 f21d 69bc b309 b3bd
000000b0: f707 a1bd 71d9 93bc fc5e 4dbd a009 30be
000000c0: b74d d5bd f978 333b 9f9d ffbc 414e e8bb
000000d0: 5442 3dbb f4ed 1cbd b5e5 3dbd 81f9 15bd
000000e0: 9e11 62bd 9b4f 64bd f8a6 f9bb b5c2 a3bb
000000f0: 84fa e53a 00cb 013d 841b bfbb 0ec2 963c
00000100: 66a2 2a3d 5aca 9bbc 24cf b1bc 4378 513d
00000110: d28a ec3c ebdf 44bc bdac 4fbc 570d 963d
00000120: 46e6 e03c f316 b33c a6b8 49bd 4b5f 84bc
00000130: 3ea3 403d 35d9 9a3d 3a4d c33c cdc1 323d
00000140: cd27 28bd 070c 143d 6b42 ecbc 62d4 7a3c
00000150: a204 62bb 9398 803b fa31 5a3c e838 123b
00000160: 874b bdba 321c e2bc 0e37 4cbd 9349 91bc
00000170: e8f0 47bd 8842 e9bd 7bcd 20be fc48 52be
00000180: a839 aabd ab41 40bd 630f 9fbd 1d0b 9cbd
00000190: 3710 3dbd 8ad5 1cbd 5500 37bd 473c 84bd
000001a0: 2a9a 433c caa0 95bd 742f fd3c 7f9f 70bd
000001b0: 0554 a33d aa93 273d 0fea 6cbd 3fc7 0bbe
000001c0: fff0 24bd a1f8 30bb 326f 323d d8d3 a33b
000001d0: b5fa b6bc 17d9 ddbc 15ee d7bd 90d0 003d
000001e0: ec6f 123d 5986 9b3c eb5f e2bd 0583 06bd
000001f0: 696b 7e3d f29b 25bd ed0e 893d 886f 80bc
00000200: 1ec3 1f3d c1a1 e5bd d51a 103d e74c 603d
00000210: 2766 b2bc 6540 763d 3963 59bd 6408 193d
00000220: 0618 80bd 8923 523c a2f6 393c 503d 9c3d
00000230: b0fe ac3d 7c5e e2bd 0fcc 18be 6f0e b6be
00000240: 09e8 95be a5fe 3fbd d6c6 6bbc c7ec 623d
00000250: 35d0 aa3c 32c8 6d3d 4d1c cb3d 388a 6a3d
00000260: 9787 4a3d 67b4 233d 1286 403c 3ee7 4bbd
00000270: 905d bfbd 55d4 933d 4e5a 7abe 4857 2ebe
00000280: 8beb 2dbd 0032 f6bc b782 e9bd 24d9 b2bd
00000290: 77df 5fbc ed8d 29be 9ec6 3cbe 9108 8cbd
000002a0: 2605 51bd bfad 8abe ab22 ebbd a59d c4bd
000002b0: af50 80be 4716 9ebd 15ed d1bd 1904 fabc
000002c0: 3df0 4fbe 1656 16be dce4 593c fe28 bb3d
000002d0: cdb7 833c 1a76 51bc c9ad 03bc bc19 d3bd
000002e0: 36f9 53bc 0325 04bc 7041 9a3d 0f0c 193d
000002f0: 5f6e 523d 83b5 603d 22c2 cebc 20a1 f83b
00000300: 8cf3 bf3c 2ff4 76bc 4e02 623c 87fd 033d
00000310: d141 4bbd ca58 a0bd 6874 c6bd aac4 3abd
00000320: 00f8 9bbd 5e90 9ebc f618 53bc ca02 96bd
00000330: a6d7 133c 88e9 efbb fd85 2d3c 6635 76bb
00000340: 27df aebb 3741 48bc 6e6e 47bd b7f8 753c
00000350: 7e24 123c 6a51 2d3d da17 053d d555 193c
00000360: 2120 f53c 1d5c 353d d288 a93c 067a 9c3d
00000370: e2c3 88bd feff d8bc cc24 553d 05db bc3c
00000380: 2140 0e3d 7d37 5d3c 703e d83c df40 9abd
00000390: 69e8 f3bc bfb5 513d 1da0 283d 8187 743c
000003a0: 3ef8 353d db77 7cbb 7749 f0bc 434c 49bd
000003b0: 885a 6f3c 641d 87bc 986c 26bc b8e2 41bc
000003c0: 51a3 45bd 3c81 c4bd ad2a 96bd 88a3 1abd
000003d0: ca2e 14bd 4db4 b7bd dbbd afbd 603f 08be
000003e0: f437 41bd b3b8 87bd 70b6 01bd a78e 58bc
000003f0: 5a31 82bc 8962 88bc 0787 85bd c3eb 373d

fc.0.bias f4 [10]
0.029431438 0.0036727078 -0.010895021 -0.06229832 -0.042525258 0.011346167 -0.010899447 -0.008123421
0.008149805 0.010150042
00000000: 331a f13c d0b1 703b 0881 32bc 862c 7fbd
00000010: f72e 2ebd 46e5 393c 9893 32bc 1918 05bc
00000020: c286 053c 5d4c 263c
