testingNN/models/lenet1.pth (torch, 55717 bytes, 6 tensors)

conv.0.weight f4 [32, 1, 5, 5]
00000000: 6ac1 383d c68a 433e bd0a 873d d02a aabd
00000010: fae6 373d e5d9 233e 1e35 003e 4fa2 44be
00000020: f84a 04be 7243 403e d471 8d3e b019 8a3d
00000030: 96af 83be 7399 053e 9d80 3a3e c2fc 8dbe
00000040: bed5 833c 372b da3c 6951 a33e 3a17 943e
00000050: 0737 4cbe 1ccb 7e3d e6fc 103e 4c2e 11be
00000060: 46a9 753e 8084 733d ed49 3b3d 7293 573c
00000070: fb53 603d 2e85 4f3e d3c2 dc3d aa02 863e
00000080: 7a6b d53d bcf4 643e 2bbc 493e b615 df3e
00000090: dcdb 773e b73d e73e aea4 c43e cc4f 4a3e
000000a0: 16d7 d93e a90a 9b3e bfaa bd3d 4e9e 60be
000000b0: 204e 8ebe e7b7 9f3e b9b0 06be afed d4be
000000c0: 4abb fdbe bff1 cbbe 357f 053e b300 053e
000000d0: aeea 6b3d b58b 353e 68fe 843e 96a8 873e
000000e0: b245 79bc 979a d13d 2973 a33e e8ac b23c
000000f0: 19fa b03e f5d1 4f3e 6b5f 8c3e 1cd9 913e
00000100: 670c d03e 14f8 bd3d a737 b63e bd99 48bc
00000110: 2fd8 a93d 59cd a63e 2b5e 203d 1367 833c
00000120: 779e 8bbe 68a5 84be 0d65 b4bc 8a3d 01bc
00000130: 69cb ab3e 281c c63d eff9 08be 3439 963d
00000140: b9fa c9bd 0f92 c53e 062f e83d d1a3 31be
00000150: 0acf b3bd e681 6fbe a8de f53d ec70 073e
00000160: 5fe6 e23c ee84 713e eba8 b9be 3fc9 d63d
00000170: 3c32 1b3e f322 203d f719 993e 7796 8dbd
00000180: b381 7d3d 29bd 743e a9f0 6bbd 0286 0d3d
00000190: 64b5 b83c 3473 5c3d b173 6d3e fb86 76be
000001a0: 74a9 b7be b552 9e3e 1a47 c23e 98ef db3c
000001b0: e4fa 8b3e 0663 4b3d 7c39 853e 3b5c af3e
000001c0: 18cc b03e 4f53 c83d a5c4 453e c6b9 403e
000001d0: 6fd2 a83e e366 aabb dafc 2ebd cc3e 3e3d
000001e0: c020 e5bd 5bd8 96bc d1f1 153c 83b2 683e
000001f0: 0f88 063e a8f4 ad3e b844 c73e 3583 efbc
00000200: 673c 693c bf3d a7be a47d 8a3e 56c0 8f3e
00000210: 4ebc 393e dec1 b3be 5e86 11bf 06d9 013f
00000220: 6628 913e 0751 a03d 02b8 22bf 4af2 77be
00000230: 7bce 063f acf6 513e c394 51be e4ae b7be
00000240: 817f 75be 6b60 d33e 5567 bb3d dbc6 7fbd
00000250: f234 aebe 6602 9fbd cae2 2abe 63b1 7a3d
00000260: 06b2 073b af3b 823e d202 f73d fabf 633e
00000270: 139b 8f3e 716c a33d 5680 d53d b951 7d3e
00000280: c8f1 843e 714f 573e 129c 8c3e 1c31 993e
00000290: 406d 903e 8435 c3bd 3ba6 9b3e 7764 c73c
000002a0: fb7a 883e 6b5c fcbd 9c2e a0bd 46f4 483e
000002b0: 398b 243e b710 4fbe 6fec 6bbe b111 84be
000002c0: 8c69 40bd 4bfe 713d 594a 2a3e e992 3a3e
000002d0: c65e 6c3d e775 c13c f322 ebbd fe91 053d
000002e0: 37fd 813e 6cd5 8f3e e1ff b83e f19e 863e
000002f0: 7b62 2b3d cb2d ec3d bece afbd fec6 41bd
00000300: ce00 bf3d de2a ab3e 2439 c63c 9855 5fbb
00000310: 2386 2fbe 34b5 2bbe 8920 473e ab48 983e
00000320: 52da 433e 1e39 983d a6e2 353e 4897 9b3c
00000330: 1e9c e6bc 4c56 7d3e b927 543e 444d 853e
00000340: 3f1d 983e 1443 fc3d 375e ed3d c63b b93d
00000350: ef44 0d3d 9e1b 3f3c fc16 c43c 6a9d 773e
00000360: bab7 433e 26a5 2a3d 493b 943e 5019 703e
00000370: 73ef f43d d767 d73c e978 d93b 703b 2d3b
00000380: ad21 933e 2db5 683e 2a9d eb3b 98e8 4bbe
00000390: a0b3 79be c705 123d f861 c9be 7e93 b0be
000003a0: b149 55be 2781 c03d e87a b1bc b4b2 04bf
000003b0: 7259 a0be 0323 3c3d edd3 f73d 0e56 2c3e
000003c0: c456 253e 244b 043e 2b0f f03e 382d ac3e
000003d0: bca0 a23e 8667 bb3e 1e68 ad3e 04db 0e3e
000003e0: c041 0abe a6a1 923e 2075 fabe 1f20 07be
000003f0: 469c 8c3d 6c27 783b 9ce6 38be 3b14 f1be
0.04510633 0.19095907 0.06593845 -0.08308947 0.04489801 0.16001089 0.12520263 -0.19202541
-0.12919223 0.18775728 0.27625906 0.06743181 -0.257199 0.13046817 0.18213125 -0.277319
0.016093131 0.026631935 0.3189805 0.2892397 -0.19942866 0.06220542 0.14158973 -0.14177817
0.23990354 0.059452534 0.045724798 0.013157712 0.05476759 0.20265648 0.10779347 0.26173908
0.1042089 0.22358984 0.19700687 0.43571252 0.24204963 0.45164272 0.3840689 0.19757003
0.4254691 0.3028157 0.09261083 -0.21935388 -0.2779398 0.31194994 -0.13153352 -0.41587588
-0.49556953 -0.39832875 0.13036807 0.12988548 0.057596855 0.17729075 0.25975347 0.26495808
-0.015214371 0.10234564 0.31923798 0.021810964 0.3456581 0.20294936 0.27416548 0.28485954
0.40634462 0.09275833 0.35589334 -0.012243685 0.08293187 0.32578543 0.039152306 0.01604036
-0.27269337 -0.25907445 -0.022020841 -0.007888207 0.33553627 0.09673339 -0.13376592 0.073351294
-0.09862275 0.38587996 0.11337094 -0.17347647 -0.08779724 -0.23389396 0.12005359 0.1322667
0.02769774 0.23585865 -0.36261687 0.104876034 0.15155882 0.03909583 0.29902622 -0.069134645
0.06189127 0.23900284 -0.05760256 0.034551628 0.022547431 0.053820804 0.23188664 -0.24074928
-0.3587147 0.30922475 0.3794487 0.026847646 0.27339852 0.049654983 0.2602042 0.34250054
0.3453071 0.09781515 0.19313295 0.18820867 0.32973048 -0.0052002533 -0.042721607 0.046446607
-0.11187887 -0.018413713 0.009151892 0.22724347 0.1313784 0.3397572 0.38919616 -0.02923737
0.014235592 -0.32664296 0.2704898 0.28076428 0.18138239 -0.35108846 -0.56845653 0.50721776
0.28351134 0.07827955 -0.63562024 -0.2421352 0.52658814 0.20504254 -0.20466904 -0.35875618
-0.2397442 0.412845 0.091505684 -0.062445503 -0.3402477 -0.07764129 -0.16688076 0.061204325
0.0020705475 0.2543616 0.12061085 0.22241202 0.28048 0.07979668 0.10424869 0.24738206
0.25965714 0.21026398 0.27462822 0.2992028 0.2820835 -0.09531692 0.3040026 0.024339898
0.26656327 -0.12322315 -0.0782139 0.19624433 0.16068734 -0.2022122 -0.23039411 -0.25794747
-0.046975657 0.059080403 0.16629924 0.18220104 0.05770757 0.02361579 -0.114812754 0.032609932
0.253885 0.28092515 0.3613272 0.26293138 0.041841965 0.11532172 -0.08584355 -0.047308914
0.09326325 0.33431143 0.024197169 -0.0034078117 -0.17141013 -0.16768342 0.19446005 0.2974294
0.19126251 0.07432769 0.17762241 0.018993035 -0.028150614 0.24739951 0.20718278 0.26035511
0.29709813 0.12317482 0.11590236 0.09044604 0.03448957 0.011664299 0.023936741 0.24181142
0.19113055 0.041661404 0.2895148 0.23447156 0.11959734 0.026294632 0.006636728 0.0026433133
0.2873663 0.22725363 0.0071903663 -0.19912946 -0.24384928 0.03565004 -0.39332557 -0.34487528
-0.20828892 0.09399634 -0.021665052 -0.5183518 -0.3131824 0.045931827 0.121009685 0.16829702
0.1614638 0.12919289 0.46886572 0.3362825 0.31763256 0.3660242 0.33868498 0.13950735
-0.13501644 0.28638953 -0.48917484 -0.13195847 0.06865744 0.0037865294 -0.1805672 -0.47085747

conv.0.bias f4 [32]
00000000: 128b e0bc 2c3a 893d db74 c83c 51e7 d43a
00000010: a0cb 753d 4d3e 38bc 769d 063e e3ee 9c3b
00000020: 8271 1cba abe4 263c 7e57 833e 7e94 903b
00000030: cf50 ccbc 3b52 0c3e ccee a73d b297 783d
00000040: b539 a238 11ba 3b3d 0175 1d3e 28f8 3e3d
00000050: 0571 753d 5e0b 803e 5091 0f3d eed3 603c
00000060: b474 903d 9b17 d63d 31e7 cb3c 28af 933c
00000070: d150 4d3e 6740 063b e555 483d 1023 893b
-0.027410064 0.067005485 0.024469784 0.0016243254 0.060008645 -0.011245322 0.13146004 0.0047892197
-0.0005967842 0.010186355 0.2565269 0.004412233 -0.024940876 0.13703243 0.08199844 0.060691543
7.735511e-05 0.045831744 0.15376665 0.04662338 0.059922237 0.25008672 0.03505069 0.013722403
0.07053509 0.10453721 0.024890514 0.018027857 0.2005036 0.0020485164 0.04891004 0.004185088

conv.3.weight f4 [16, 32, 3, 3]
00000000: e7f1 8a3d e5f7 0c3e 7834 1c3e 3d00 423d
00000010: 7d3c af3d d71f ef3d 2e4f 6f3d 557d ae3c
00000020: f8be b7bd 4cf3 b93c 5850 29be 5ce4 073c
00000030: d01a 7cbe 0d1f 80bd 36c5 293e a0eb 51be
00000040: cd6d cb3d 8c51 4a3e 2dff 403d 05f1 45bd
00000050: 13f3 033e 9781 2bbe c420 71bd 7c4a 243e
00000060: 7597 bdbd df21 283e ad6a 0a3d ee79 20be
00000070: a8f3 0e3e f6b2 673e 2aae 19be 13ca bf3d
00000080: bf36 1c3e c7ae 2c3c 4392 feb9 9c13 523d
00000090: 22ed 0c3d 11e2 323d e816 5e3d 88f6 bebd
000000a0: c602 11be c13a 123e e23e 0cbe 8988 c6bd
000000b0: 1a2f 5e3d 0597 d23d e93d d3be 1004 cd3e
000000c0: 990e 0abe e627 0cbe bfaa d03e ce04 1cbe
000000d0: 08a1 c03e b2c0 d93e 76e5 99bc d3f6 4f3d
000000e0: 3da9 163e c742 36be a84c a03c 9b00 e03d
000000f0: 7e7f 683d 0a67 d63d 9c9a cf3d ed25 283d
00000100: 6aa2 ba3d 3cca dc3d 146e 9dbb 674b c23d
00000110: a10d dc3b c743 013d 45d4 ca3d c41a f93c
00000120: df53 043d 9333 25bb e32f b13d 07ad e3bd
00000130: 5e72 03bd 0c79 053d b38d 19be 859c 703d
00000140: 9d42 763d 61e9 47be 553a 633d 8345 fbbc
00000150: f639 8f3b 697f 023e 3fe3 083d 4787 493e
00000160: df94 123e c335 01bd bf72 b2bd 445d 8bbc
00000170: d7bd cabd fa41 993d d373 06bc f5e1 43be
00000180: ee37 143e ecf4 cabc b750 8bbe 3122 5dbe
00000190: 433b 38be d146 693d 8648 2dbe 1e57 913d
000001a0: e225 e8bc a2d3 3e3e efd4 053e 5cb0 74bd
000001b0: 301c 09be 6e13 c5bd 6cd8 8a3d ad05 1ebe
000001c0: b4b2 7cbb b52c e33d 16bb a7bd 70df 793d
000001d0: df24 963d 89d2 dbbd 0ce9 06bd 1331 9b3d
000001e0: 2561 2bbd 22a7 003e 28c5 1abd b961 263e
000001f0: 91aa 043e 73e8 41be 079a 253e 1b36 733d
00000200: 0261 b23d d920 f13d 635d ff3b 2254 3a3d
00000210: 1ddd 9abd 57eb 8d3c 8ae6 fb3d e524 a3bd
00000220: 5e8e 61be b076 c1be a12f 53bc dfe5 8cbe
00000230: c229 c5be ae29 16bc a3fa 11be ed8f abbe
00000240: 619b 05be d697 90bc 2947 8f3d 926f 33be
00000250: 0737 a43d 1546 943d b1a3 17bd d83d 343e
00000260: f0e5 553d 41e6 22bd 1a7d 403d a9a5 a63d
00000270: 9075 f73c 2eed 273e 4f2d aa3d 2cfa 463e
00000280: 0cea 583e 7f12 3b3c 1578 57bd f7e5 2fbd
00000290: ab15 793e 55b9 dfbd d1ca 01be 0d64 4f3e
000002a0: 4cf6 0dbe 6164 223e 9921 433e c688 debd
000002b0: 8ca4 443e bd8a 023e b90f e6bd 1ab9 bb3d
000002c0: 9010 293e 54df a13d 0254 983c 54c0 83bd
000002d0: 824f dbbd 60fe 493e 4ce1 173e 5914 a63c
000002e0: f57f 593e 8ba9 f93d bd2d 993d a4f4 ee3d
000002f0: 2759 003e 857d 563b bdf6 25be 1f4d 4fbe
00000300: 5f0e 243d 5f58 2dbe 0ff9 64be 84a1 88bd
00000310: 0244 20be c3c0 5bbe c1f1 23be 835a 53bd
00000320: 58ed 7fbd 7be2 39be 5a68 203d 1b2b 993c
00000330: 5613 083d 2ed1 b43d 8edf bb3c b188 2d3d
00000340: 4d34 0ebe 91d6 75bb 0ffc adbd 67a3 12bd
00000350: 7a76 4d3d 3eb6 89be fef5 393d 6692 3a3d
00000360: ff96 95bd 19f5 29be aff3 173e 3701 66be
00000370: 7555 45bd 65eb a03d 6852 f3bd 94e8 843d
00000380: 0987 253e 4e8d 53be ac49 90be adf3 82be
00000390: e106 8abd 48bf 0bbe 3307 c4be a52e fe3c
000003a0: 42da 30bd 9cb1 23be 8b81 09be 0c72 8a3c
000003b0: cff2 653d bfe7 b23a b99f 093e 0970 593c
000003c0: f28e 183e 912d c83d 0f84 233d 5e5e 78bc
000003d0: ef89 6f3d ed54 003e faa8 2fbe ccb3 ac3d
000003e0: aa2c 9b3d 4ce9 abbd d53c 8a3d 9e85 013d
000003f0: 9147 62be 8985 25bd 9701 26be 6985 863d
0.067844205 0.1376644 0.1525439 0.04736351 0.08556459 0.11675995 0.05842512 0.021299997
-0.08971971 0.02269902 -0.16534555 0.008294191 -0.24619603 -0.062559225 0.16579136 -0.2050004
0.09933052 0.1975767 0.047118355 -0.048325557 0.12885694 -0.16748653 -0.05886914 0.16044039
-0.09257404 0.16419171 0.03379314 -0.15671512 0.13960135 0.22626862 -0.15007845 0.093647145
0.15255259 0.010539717 -0.0004855563 0.051288232 0.034405835 0.043672625 0.054221064 -0.09324366
-0.14161214 0.14280225 -0.13695863 -0.09694011 0.05424414 0.10282711 -0.4125817 0.40042162
-0.13482131 -0.13687095 0.4075527 -0.15236208 0.37622857 0.42529827 -0.018786173 0.0507725
0.14712997 -0.17798911 0.019567803 0.109376155 0.05676221 0.10468872 0.10136911 0.041051794
0.09113009 0.10780761 -0.004804382 0.09487038 0.006715492 0.031558778 0.099037685 0.03040827
0.03230655 -0.0025207743 0.08651712 -0.11116987 -0.03209149 0.032586142 -0.1499546 0.05874302
0.06012212 -0.1952262 0.05547555 -0.030672794 0.004370923 0.12743916 0.033419844 0.1968051
0.14314602 -0.03154541 -0.08713292 -0.017012246 -0.0989949 0.07483287 -0.008206326 -0.19129165
0.1447446 -0.024774991 -0.27210018 -0.21595074 -0.17991357 0.0569523 -0.16922197 0.070966944
-0.028338376 0.18635419 0.13069509 -0.059738502 -0.13389659 -0.096228465 0.067795604 -0.15431853
-0.0038558664 0.110925116 -0.08189981 0.061004102 0.07331251 -0.10733516 -0.032937095 0.075777195
-0.04184069 0.12563756 -0.03778568 0.16248216 0.12955691 -0.18936329 0.16172038 0.05937777
0.08709909 0.11773843 0.007793115 0.04549039 -0.07561705 0.017324133 0.12299831 -0.079660214
-0.22026965 -0.37785864 -0.012889774 -0.27519128 -0.3850842 -0.009165211 -0.14255767 -0.33508244
-0.13047554 -0.017650526 0.069959946 -0.1752303 0.08018308 0.072399296 -0.037021343 0.17601717
0.05222124 -0.03977037 0.046994306 0.08137066 0.030207425 0.1639907 0.08309423 0.1943137
0.21183032 0.011417984 -0.052604754 -0.04294392 0.24324672 -0.10924021 -0.12675025 0.2025301
-0.13863486 0.15858604 0.19055785 -0.10865931 0.19203395 0.12748237 -0.112334676 0.09166165
0.16510224 0.079039246 0.018594746 -0.06433168 -0.10708524 0.19725943 0.14832038 0.020273374
0.21240218 0.12190541 0.07479427 0.11667755 0.12534009 0.0032728624 -0.16207404 -0.20244263
0.040052768 -0.16928242 -0.22360633 -0.06671432 -0.15650943 -0.21460252 -0.1601019 -0.05159999
-0.062482208 -0.18152802 0.039162017 0.018697312 0.033221565 0.0882896 0.022933748 0.042366687
-0.13887139 -0.0037511925 -0.08495342 -0.035800364 0.050161816 -0.26896852 0.045400612 0.045549773
-0.07304191 -0.16597404 0.14839052 -0.22461401 -0.0481772 0.07857398 -0.11880952 0.06489673
0.16164793 -0.20659372 -0.28181207 -0.25576535 -0.06739593 -0.13647187 -0.38286743 0.031028101
-0.043176897 -0.15985721 -0.13428323 0.016900085 0.056139763 0.0013649388 0.13439836 0.01327134
0.1489828 0.09774316 0.039920863 -0.015159218 0.058481153 0.12532397 -0.17154303 0.08432731
0.07576878 -0.08394107 0.06749884 0.031621568 -0.22097613 -0.040410552 -0.16211544 0.06568415

conv.3.bias f4 [16]
00000000: fcbf 49bd e8a0 9ebb 6674 f9bc 878a 22bd
00000010: 1185 073d fe52 b6bc 5a56 72bc 1482 95bd
00000020: dde1 043d df26 573d 951d 61bd 5c9f 723c
00000030: 3767 a63c 25cf 64bd 78cd 31bb a193 6fbd
-0.049255356 -0.004840959 -0.03045101 -0.03968289 0.033085886 -0.02225637 -0.014791096 -0.07300201
0.032441963 0.052527305 -0.054959852 0.014808502 0.020312889 -0.05586161 -0.0027130526 -0.0584904

fc.0.weight f4 [10, 784]
00000000: 1b54 1cbe d0c8 eabd b14c 25bd 7657 88bd
00000010: 4c6c 80bd db80 50bd fed7 f73c fe5e cebd
00000020: 7155 1b3d b3a0 30bd eb74 383d 3b99 66bb
00000030: 3000 a2bc 6a58 32be 4f1a 233d d8f4 10bc
00000040: 814c 843d ecdc 1a3d 80a7 a3bd 5451 a03d
00000050: adba b9bd bf08 cb3d 8f00 713d ab3e 193d
00000060: 6e35 04be 223c cb3d db89 ef3d 1f9d 0bbe
00000070: 8563 e73d e2e2 253d 71b4 2a3d fe3d 0dbd
00000080: 13f0 743d 851b 883d 5923 b63b e5da 813d
00000090: d0d7 013d f511 303d 7443 97bd 6c39 94bd
000000a0: e9de 75bd 7f77 efbc d7c7 4d3d eb88 96bd
000000b0: a5ca 67bd ddd9 28be 18c1 c2be 6483 3dbe
000000c0: 67a2 f8bc b0f6 f1b9 34ad 8abc ac5f 16bd
000000d0: f5a6 2bbe fe56 e23b c05b cfbd e1e0 8d39
000000e0: 12b9 6b3c 5b13 fcbb 7064 0fbe 375d 0bbe
000000f0: c642 bebd 9228 85bd f563 0abd 8c81 5abb
00000100: aea7 b8bd 100b 803d 14f8 bc3d 9b1c 57bd
00000110: ea99 25bd da65 a83c 212e ebbc 3d52 c2bd
00000120: 2c6a 40bb 3d6f 843c f80a 60bd f231 46bd
00000130: 51ff e43b 3642 2d3c 486f ccbd e019 28bd
00000140: 73db 4fbd a875 be3d 80f5 283d a38c 863d
00000150: 26d7 a0bc e425 623c 754e 29bc 550b 0a3d
00000160: cc1b 5f3d edb6 3bbd 6c81 093d 9d0c 8d3d
00000170: ab35 4e3d a7bd babb e640 dd3c 09e3 d3bd
00000180: 799b ecbc edaa 923b c29f 553d 7400 87bc
00000190: e40c d8bc b1aa e93b 1dc6 343c df2f 29bd
000001a0: 6960 043d 994d d3bc 64ed 17bb fecf 2abd
000001b0: 4258 b1bc 74a4 1c3d 2df6 cc3c c725 5d3b
000001c0: 2fee 323d 4a6d 03bd af81 033d 097b 013d
000001d0: f8e6 753d 6864 31be bd2e f8bd 7f06 87bc
000001e0: d25d 85bd bbe8 213d 7eae 0fbe 2484 c0bd
000001f0: b46c e4bd 3be2 27be 4536 28bd f5c5 21be
00000200: 6123 6ebd ff6b 753c df10 ba3d 2011 e9bc
00000210: 3197 69be 5613 cdbc fe60 4bbd e6c2 e9bd
00000220: 00ec ee3c 216b 003e 04b7 c73d 8283 633c
00000230: ebee 1f3d 8897 8fbd 8e85 a0be 2346 6cbd
00000240: 6c5a f33d a4a6 a13d 3e71 403d 09fb 88bc
00000250: 54d1 11be 59d7 dcbd 40a4 18bd 7d04 a2bd
00000260: 30a3 a0bd 9f61 30bd 93e0 dbbd faa4 053b
00000270: 0fb2 c8bb 3c55 e83a cd83 173c 522a bebc
00000280: c724 41bd 12f0 08bd 8b7f 2f3d 17f1 ce3c
00000290: a2a4 f23c da33 703a e1ef 5b3c 0657 4e3d
000002a0: 4a9c c8bc 3379 8c3d a266 543d bf73 81bd
000002b0: 5e51 46bd 1b1d 733d 50e6 ac3d d618 1f3d
000002c0: 4ab8 abba 63a5 263d 7594 95bc b9fb c23c
000002d0: 7874 fb3c 36eb 853d 5407 57bc 27ad b93c
000002e0: 95fa 223c 7ff3 a03c 619a 3b3c 07eb b43c
000002f0: 63ea 1ebb 4500 153c 25bb cfbc 8546 54bc
00000300: 96d9 0fbd 6be8 dabd f9f2 f9bd 77dc 7539
00000310: a911 86bd 5fc0 9bbd e0d0 9cbd 81d5 04bd
00000320: 36ac 82bd a5bc 41bd 8638 a4bd 5bc3 26bd
00000330: f484 4a3b d96e 783c 0bac 82bc 3829 c63c
00000340: 8149 453c e222 3abd 7662 053d 8389 23bd
00000350: 4457 1c3c 98c7 063d 2849 a03d 36ab 763d
00000360: f6a3 513d c19e a53d f530 743d ea56 1e3d
00000370: eeef 93bd 4c5b 66bc aadc 663d 4bbf b33d
00000380: 6362 b73d 7c72 09bc b3b6 203d 7244 99bd
00000390: 39b9 b83b c4c8 8f3b 0370 973d 54bf 333d
000003a0: 7a17 493c a8b0 8c3c 3501 11bc 501b f83a
000003b0: c574 56bd 2a27 193d b279 8dbb a5e7 81bd
000003c0: ec0b 99bd 7495 05be 8ac8 15be 3f59 15be
000003d0: 5efd c5bc c809 153d d7b5 183d 4237 13bc
000003e0: 77f2 3cb9 86e3 bd3a b1d4 1fbd 90b4 d73d
000003f0: 8eeb da3d 30da 57bd b94d 7fbc 66a4 40bd
-0.15266459 -0.11464083 -0.04035634 -0.06657307 -0.06270656 -0.050904136 0.03025436 -0.10076712
0.03792328 -0.043122005 0.045033377 -0.0035186547 -0.01977548 -0.1741654 0.03982001 -0.008847438
0.064599045 0.037808344 -0.079909325 0.07828012 -0.09068809 0.099137776 0.058838423 0.03741328
-0.12911007 0.09923579 0.11696216 -0.13634156 0.11298279 0.040499575 0.04167599 -0.03448295
0.059799265 0.06645874 0.005558413 0.06340579 0.031699955 0.042985875 -0.073859125 -0.07237515
-0.060027037 -0.029231785 0.05023941 -0.07350334 -0.05658974 -0.16489358 -0.38037944 -0.18507153
-0.030350877 -0.000461509 -0.016928293 -0.036712334 -0.16762908 0.006907343 -0.10124922 0.00027061164
0.014387386 -0.007692737 -0.14003158 -0.13609777 -0.0929008 -0.06501879 -0.033786733 -0.0033341376
-0.09016357 0.0625211 0.09227005 -0.052517515 -0.040429987 0.02055638 -0.02870852 -0.09488342
-0.0029360158 0.016166324 -0.05469796 -0.048387475 0.006988444 0.010574868 -0.09982163 -0.0410403
-0.050746392 0.09299785 0.041249752 0.06569793 -0.01963384 0.013802979 -0.010333647 0.033702213
0.05446987 -0.04582875 0.033570692 0.068871714 0.05034415 -0.005698878 0.027008485 -0.10346038
-0.028882729 0.0044759423 0.05215431 -0.016479708 -0.026373334 0.0071309437 0.011033562 -0.04130542
0.032318506 -0.025793837 -0.0023182267 -0.041702263 -0.02164853 0.038242772 0.02501973 0.003374444
0.04368418 -0.032086648 0.032106098 0.031611476 0.060034722 -0.17323458 -0.121182896 -0.01648259
-0.065120354 0.03952859 -0.14031407 -0.09400204 -0.11153546 -0.16394894 -0.04106738 -0.15798171
-0.05813921 0.014979362 0.09085249 -0.028450549 -0.22811581 -0.025033634 -0.049653046 -0.11414127
0.029165268 0.12540866 0.09751704 0.013886334 0.03904621 -0.07011324 -0.31351894 -0.057684075
0.11882481 0.07893112 0.046982996 -0.016721265 -0.14240009 -0.10783262 -0.037266016 -0.07911012
-0.078436255 -0.04306185 -0.107361935 0.0020392523 -0.006124742 0.0017725597 0.009247732 -0.02321354
-0.047154214 -0.033432074 0.042846244 0.025261445 0.029619519 0.0009163 0.013423891 0.05037596
-0.024488587 0.068590544 0.05185569 -0.06320905 -0.04841744 0.05935393 0.08442366 0.038842045
-0.0013101187 0.04068507 -0.018259266 0.023801671 0.030695185 0.065390036 -0.013124306 0.022665573
0.009947439 0.019647358 0.011450381 0.022084726 -0.0024248592 0.009094303 -0.025357792 -0.012956266
-0.035119615 -0.106888615 -0.122045465 0.0002344715 -0.06546337 -0.07605051 -0.07657027 -0.032430176
-0.06380503 -0.047299046 -0.080185935 -0.04071365 0.0030902 0.015163147 -0.015951177 0.024189577
0.0120414505 -0.045443423 0.032564603 -0.039926063 0.00954229 0.03290519 0.078264534 0.060221873
0.051181756 0.080869205 0.059617 0.038657106 -0.07223497 -0.014059853 0.056362785 0.087767206
0.08954313 -0.008389112 0.039236736 -0.07483758 0.0056373146 0.004387947 0.073944114 0.043883637
0.012273664 0.01717408 -0.008850385 0.0018929038 -0.052357454 0.037390865 -0.0043174857 -0.06343011
-0.07472977 -0.13045293 -0.14627281 -0.14584826 -0.024168666 0.03638628 0.03728279 -0.008985342
-0.00018019402 0.0014487363 -0.039021198 0.105324864 0.1068946 -0.052698314 -0.015582495 -0.047031783

fc.0.bias f4 [10]
00000000: 7cb6 54ba 4405 6a3c 7868 e13b e798 0cbd
00000010: 4d73 99bc 0c6d b43c 119f 8bbc 4d80 6c3c
00000020: c620 ad3c 952e 0abc
-0.00081143505 0.014283482 0.0068789087 -0.034325507 -0.018731738 0.022024654 -0.017043622 0.014434886
0.021133792 -0.008433958
